…
Average actions of items: 483.65866666666665
The number of inters: 544116
The sparsity of the dataset: 97.26448270782609%
Remain Fields: ['user', 'whiskey', 'rating']
Thu 02 Jun 2022 04:18:46 INFO  [Training]: train_batch_size = [64] negative sampling: [{'popularity': 10}]
Thu 02 Jun 2022 04:18:46 INFO  [Evaluation]: eval_batch_size = [256] eval_args: [{'split': {'RS': [0.8, 0.1, 0.1]}, 'group_by': 'user', 'order': 'RO', 'mode': 'full'}]
Thu 02 Jun 2022 04:18:46 WARNING  Max value of user's history interaction records has reached 72.64653641207815% of the total.
Thu 02 Jun 2022 04:18:51 INFO  RecVAE(
  (encoder): Encoder(
    (fc1): Linear(in_features=1126, out_features=600, bias=True)
    (ln1): LayerNorm((600,), eps=0.1, elementwise_affine=True)
    (fc2): Linear(in_features=600, out_features=600, bias=True)
    (ln2): LayerNorm((600,), eps=0.1, elementwise_affine=True)
    (fc3): Linear(in_features=600, out_features=600, bias=True)
    (ln3): LayerNorm((600,), eps=0.1, elementwise_affine=True)
    (fc4): Linear(in_features=600, out_features=600, bias=True)
    (ln4): LayerNorm((600,), eps=0.1, elementwise_affine=True)
    (fc5): Linear(in_features=600, out_features=600, bias=True)
    (ln5): LayerNorm((600,), eps=0.1, elementwise_affine=True)
    (fc_mu): Linear(in_features=600, out_features=200, bias=True)
    (fc_logvar): Linear(in_features=600, out_features=200, bias=True)
  )
  (prior): CompositePrior(
    (encoder_old): Encoder(
      (fc1): Linear(in_features=1126, out_features=600, bias=True)
      (ln1): LayerNorm((600,), eps=0.1, elementwise_affine=True)
      (fc2): Linear(in_features=600, out_features=600, bias=True)
      (ln2): LayerNorm((600,), eps=0.1, elementwise_affine=True)
      (fc3): Linear(in_features=600, out_features=600, bias=True)
      (ln3): LayerNorm((600,), eps=0.1, elementwise_affine=True)
      (fc4): Linear(in_features=600, out_features=600, bias=True)
      (ln4): LayerNorm((600,), eps=0.1, elementwise_affine=True)
      (fc5): Linear(in_features=600, out_features=600, bias=True)
      (ln5): LayerNorm((600,), eps=0.1, elementwise_affine=True)
      (fc_mu): Linear(in_features=600, out_features=200, bias=True)
      (fc_logvar): Linear(in_features=600, out_features=200, bias=True)
    )
  )
  (decoder): Linear(in_features=200, out_features=1126, bias=True)
)
Trainable parameters: 2591326
Thu 02 Jun 2022 04:19:05 INFO  epoch 0 training [time: 14.60s, train loss: 16670.4083]
Thu 02 Jun 2022 04:20:38 INFO  epoch 0 evaluating [time: 92.98s, valid_score: 0.435900]
Thu 02 Jun 2022 04:20:38 INFO  valid result: 
recall@5 : 0.4104    recall@10 : 0.47    ndcg@5 : 0.4251    ndcg@10 : 0.4359
Thu 02 Jun 2022 04:20:39 INFO  Saving current: /opt/ml/workspace/RecBole/model_saved/RecVAE-Jun-02-2022_04-18-51.pth
…
