…
Average actions of items: 136.5039246467818
The number of inters: 86953
The sparsity of the dataset: 98.87882552935146%
Remain Fields: ['user', 'whiskey', 'rating']
Mon 30 May 2022 05:09:29 INFO  [Training]: train_batch_size = [64] negative sampling: [{'popularity': 10}]
Mon 30 May 2022 05:09:29 INFO  [Evaluation]: eval_batch_size = [256] eval_args: [{'split': {'RS': [0.8, 0.1, 0.1]}, 'group_by': 'user', 'order': 'RO', 'mode': 'full'}]
Mon 30 May 2022 05:09:29 WARNING  Max value of user's history interaction records has reached 23.824451410658305% of the total.
Mon 30 May 2022 05:09:29 INFO  RecVAE(
  (encoder): Encoder(
    (fc1): Linear(in_features=638, out_features=600, bias=True)
    (ln1): LayerNorm((600,), eps=0.1, elementwise_affine=True)
    (fc2): Linear(in_features=600, out_features=600, bias=True)
    (ln2): LayerNorm((600,), eps=0.1, elementwise_affine=True)
    (fc3): Linear(in_features=600, out_features=600, bias=True)
    (ln3): LayerNorm((600,), eps=0.1, elementwise_affine=True)
    (fc4): Linear(in_features=600, out_features=600, bias=True)
    (ln4): LayerNorm((600,), eps=0.1, elementwise_affine=True)
    (fc5): Linear(in_features=600, out_features=600, bias=True)
    (ln5): LayerNorm((600,), eps=0.1, elementwise_affine=True)
    (fc_mu): Linear(in_features=600, out_features=200, bias=True)
    (fc_logvar): Linear(in_features=600, out_features=200, bias=True)
  )
  (prior): CompositePrior(
    (encoder_old): Encoder(
      (fc1): Linear(in_features=638, out_features=600, bias=True)
      (ln1): LayerNorm((600,), eps=0.1, elementwise_affine=True)
      (fc2): Linear(in_features=600, out_features=600, bias=True)
      (ln2): LayerNorm((600,), eps=0.1, elementwise_affine=True)
      (fc3): Linear(in_features=600, out_features=600, bias=True)
      (ln3): LayerNorm((600,), eps=0.1, elementwise_affine=True)
      (fc4): Linear(in_features=600, out_features=600, bias=True)
      (ln4): LayerNorm((600,), eps=0.1, elementwise_affine=True)
      (fc5): Linear(in_features=600, out_features=600, bias=True)
      (ln5): LayerNorm((600,), eps=0.1, elementwise_affine=True)
      (fc_mu): Linear(in_features=600, out_features=200, bias=True)
      (fc_logvar): Linear(in_features=600, out_features=200, bias=True)
    )
  )
  (decoder): Linear(in_features=200, out_features=638, bias=True)
)
Trainable parameters: 2200438
Mon 30 May 2022 05:11:00 INFO  epoch 0 training [time: 90.65s, train loss: 2418.3263]
Mon 30 May 2022 05:11:48 INFO  epoch 0 evaluating [time: 48.10s, valid_score: 0.248100]
Mon 30 May 2022 05:11:48 INFO  valid result: 
recall@5 : 0.2976    recall@10 : 0.3483    ndcg@5 : 0.2315    ndcg@10 : 0.2481
Mon 30 May 2022 05:11:48 INFO  Saving current: model_saved/RecVAE-May-30-2022_05-09-30.pth
…
